…
    log: /data/gobyeonghu/test/test/HAT/results/test_My_HAT_2
    visualization: /data/gobyeonghu/test/test/HAT/results/test_My_HAT_2/visualization
  ]
  val:[
    save_img: True
    suffix: None
  ]
  dist: False
  rank: 0
  world_size: 1
  auto_resume: False
  is_train: False

2023-06-07 08:38:52,548 INFO: Dataset [SingleImageDataset] - custom is built.
2023-06-07 08:38:52,549 INFO: Number of test images in custom: 500
2023-06-07 08:38:52,865 INFO: Network [HAT] is created.
2023-06-07 08:38:53,905 INFO: Network: HAT, with parameters: 4,994,323
2023-06-07 08:38:53,905 INFO: HAT(
  (conv_first): Conv2d(3, 96, kernel_size=(3, 3), stride=(1, 1), padding=(1, 1))
  (patch_embed): PatchEmbed(
    (norm): LayerNorm((96,), eps=1e-05, elementwise_affine=True)
  )
  (patch_unembed): PatchUnEmbed()
  (pos_drop): Dropout(p=0.0, inplace=False)
  (layers): ModuleList(
    (0): RHAG(
      (residual_group): AttenBlocks(
        (blocks): ModuleList(
          (0): HAB(
            (norm1): LayerNorm((96,), eps=1e-05, elementwise_affine=True)
            (attn): WindowAttention(
              (qkv): Linear(in_features=96, out_features=288, bias=True)
              (attn_drop): Dropout(p=0.0, inplace=False)
              (proj): Linear(in_features=96, out_features=96, bias=True)
              (proj_drop): Dropout(p=0.0, inplace=False)
              (softmax): Softmax(dim=-1)
            )
            (conv_block): CAB(
              (cab): Sequential(
                (0): Conv2d(96, 32, kernel_size=(3, 3), stride=(1, 1), padding=(1, 1))
                (1): GELU(approximate='none')
                (2): Conv2d(32, 96, kernel_size=(3, 3), stride=(1, 1), padding=(1, 1))
                (3): ChannelAttention(
                  (attention): Sequential(
                    (0): AdaptiveAvgPool2d(output_size=1)
                    (1): Conv2d(96, 3, kernel_size=(1, 1), stride=(1, 1))
                    (2): ReLU(inplace=True)
                    (3): Conv2d(3, 96, kernel_size=(1, 1), stride=(1, 1))
                    (4): Sigmoid()
                  )
                )
              )
            )
            (drop_path): Identity()
            (norm2): LayerNorm((96,), eps=1e-05, elementwise_affine=True)
            (mlp): Mlp(
              (fc1): Linear(in_features=96, out_features=384, bias=True)
              (act): GELU(approximate='none')
              (fc2): Linear(in_features=384, out_features=96, bias=True)
              (drop): Dropout(p=0.0, inplace=False)
            )
          )
          (1-5): 5 x HAB(
            (norm1): LayerNorm((96,), eps=1e-05, elementwise_affine=True)
            (attn): WindowAttention(
              (qkv): Linear(in_features=96, out_features=288, bias=True)
              (attn_drop): Dropout(p=0.0, inplace=False)
              (proj): Linear(in_features=96, out_features=96, bias=True)
              (proj_drop): Dropout(p=0.0, inplace=False)
              (softmax): Softmax(dim=-1)
            )
            (conv_block): CAB(
              (cab): Sequential(
                (0): Conv2d(96, 32, kernel_size=(3, 3), stride=(1, 1), padding=(1, 1))
                (1): GELU(approximate='none')
                (2): Conv2d(32, 96, kernel_size=(3, 3), stride=(1, 1), padding=(1, 1))
                (3): ChannelAttention(
                  (attention): Sequential(
                    (0): AdaptiveAvgPool2d(output_size=1)
                    (1): Conv2d(96, 3, kernel_size=(1, 1), stride=(1, 1))
                    (2): ReLU(inplace=True)
                    (3): Conv2d(3, 96, kernel_size=(1, 1), stride=(1, 1))
                    (4): Sigmoid()
                  )
                )
              )
            )
            (drop_path): DropPath()
            (norm2): LayerNorm((96,), eps=1e-05, elementwise_affine=True)
            (mlp): Mlp(
              (fc1): Linear(in_features=96, out_features=384, bias=True)
              (act): GELU(approximate='none')
              (fc2): Linear(in_features=384, out_features=96, bias=True)
              (drop): Dropout(p=0.0, inplace=False)
            )
          )
        )
        (overlap_attn): OCAB(
          (norm1): LayerNorm((96,), eps=1e-05, elementwise_affine=True)
          (qkv): Linear(in_features=96, out_features=288, bias=True)
          (unfold): Unfold(kernel_size=(12, 12), dilation=1, padding=2, stride=8)
          (softmax): Softmax(dim=-1)
          (proj): Linear(in_features=96, out_features=96, bias=True)
          (norm2): LayerNorm((96,), eps=1e-05, elementwise_affine=True)
          (mlp): Mlp(
            (fc1): Linear(in_features=96, out_features=384, bias=True)
            (act): GELU(approximate='none')
            (fc2): Linear(in_features=384, out_features=96, bias=True)
            (drop): Dropout(p=0.0, inplace=False)
          )
        )
      )
      (conv): Conv2d(96, 96, kernel_size=(3, 3), stride=(1, 1), padding=(1, 1))
      (patch_embed): PatchEmbed()
      (patch_unembed): PatchUnEmbed()
    )
    (1-3): 3 x RHAG(
      (residual_group): AttenBlocks(
        (blocks): ModuleList(
          (0-5): 6 x HAB(
            (norm1): LayerNorm((96,), eps=1e-05, elementwise_affine=True)
            (attn): WindowAttention(
              (qkv): Linear(in_features=96, out_features=288, bias=True)
              (attn_drop): Dropout(p=0.0, inplace=False)
              (proj): Linear(in_features=96, out_features=96, bias=True)
              (proj_drop): Dropout(p=0.0, inplace=False)
              (softmax): Softmax(dim=-1)
            )
            (conv_block): CAB(
              (cab): Sequential(
                (0): Conv2d(96, 32, kernel_size=(3, 3), stride=(1, 1), padding=(1, 1))
                (1): GELU(approximate='none')
                (2): Conv2d(32, 96, kernel_size=(3, 3), stride=(1, 1), padding=(1, 1))
                (3): ChannelAttention(
                  (attention): Sequential(
                    (0): AdaptiveAvgPool2d(output_size=1)
                    (1): Conv2d(96, 3, kernel_size=(1, 1), stride=(1, 1))
                    (2): ReLU(inplace=True)
                    (3): Conv2d(3, 96, kernel_size=(1, 1), stride=(1, 1))
                    (4): Sigmoid()
                  )
                )
              )
            )
            (drop_path): DropPath()
            (norm2): LayerNorm((96,), eps=1e-05, elementwise_affine=True)
            (mlp): Mlp(
              (fc1): Linear(in_features=96, out_features=384, bias=True)
              (act): GELU(approximate='none')
              (fc2): Linear(in_features=384, out_features=96, bias=True)
              (drop): Dropout(p=0.0, inplace=False)
            )
          )
        )
        (overlap_attn): OCAB(
          (norm1): LayerNorm((96,), eps=1e-05, elementwise_affine=True)
          (qkv): Linear(in_features=96, out_features=288, bias=True)
          (unfold): Unfold(kernel_size=(12, 12), dilation=1, padding=2, stride=8)
          (softmax): Softmax(dim=-1)
          (proj): Linear(in_features=96, out_features=96, bias=True)
          (norm2): LayerNorm((96,), eps=1e-05, elementwise_affine=True)
          (mlp): Mlp(
            (fc1): Linear(in_features=96, out_features=384, bias=True)
            (act): GELU(approximate='none')
            (fc2): Linear(in_features=384, out_features=96, bias=True)
            (drop): Dropout(p=0.0, inplace=False)
          )
        )
      )
      (conv): Conv2d(96, 96, kernel_size=(3, 3), stride=(1, 1), padding=(1, 1))
      (patch_embed): PatchEmbed()
      (patch_unembed): PatchUnEmbed()
    )
  )
  (norm): LayerNorm((96,), eps=1e-05, elementwise_affine=True)
  (conv_after_body): Conv2d(96, 96, kernel_size=(3, 3), stride=(1, 1), padding=(1, 1))
  (conv_before_upsample): Sequential(
    (0): Conv2d(96, 64, kernel_size=(3, 3), stride=(1, 1), padding=(1, 1))
    (1): LeakyReLU(negative_slope=0.01, inplace=True)
  )
  (upsample): Upsample()
  (conv_last): Conv2d(64, 3, kernel_size=(3, 3), stride=(1, 1), padding=(1, 1))
)
2023-06-07 08:38:54,005 INFO: Loading HAT model from experiments/train_My_HAT-S/models/net_g_160000.pth, with param key: [params_ema].
2023-06-07 08:38:54,102 INFO: Model [HATModel] is created.
2023-06-07 08:38:54,102 INFO: Testing custom...
